…
layer = LSTM(128)(layer)
layer = Dense(128)(layer)
layer = Activation('relu')(layer)
layer = Dropout(0.5)(layer)
layer = Dense(1.5)(layer)
layer = Activation('sigmoid')(layer)
model = Model(inputs=inputs,outputs=layer)
model.summary()
Model: "model"
_________________________________________________________________
 Layer (type)                Output Shape              Param #   
=================================================================
 input_1 (InputLayer)        [(None, 150)]             0         
                                                                 
 embedding (Embedding)       (None, 150, 50)           50000     
                                                                 
 lstm (LSTM)                 (None, 128)               91648     
                                                                 
 dense (Dense)               (None, 128)               16512     
                                                                 
 activation (Activation)     (None, 128)               0         
                                                                 
 dropout (Dropout)           (None, 128)               0         
                                                                 
 dense_1 (Dense)             (None, 1)                 129       
                                                                 
 activation_1 (Activation)   (None, 1)                 0         
                                                                 
=================================================================
Total params: 158,289
Trainable params: 158,289
Non-trainable params: 0
_________________________________________________________________
Compile the Model

model.compile(loss='binary_crossentropy',optimizer=Adam(),metrics=['accuracy'])
Fit the Model

history = model.fit(sequences_matrix,Y_train,batch_size=20,epochs=15,validation_split=0.2)
…
